Test Job running on compute-1-08.local:
Loading Virtual Environment...
Virtual Environment Load Successful

_________________________________________________________________
Layer (type)                 Output Shape              Param #   
=================================================================
encoder (Encoder)            (None, 1024, 64, 32)      40621216  
_________________________________________________________________
decoder (Decoder)            (None, 32, 64, 1024)      9794016   
_________________________________________________________________
segmentation_head (Segmentat (None, 20, 64, 1024)      5780      
_________________________________________________________________
softmax (Softmax)            (None, 20, 64, 1024)      0         
=================================================================
Total params: 50,421,012
Trainable params: 50,377,364
Non-trainable params: 43,648
_________________________________________________________________


======================== Encoder Summary ========================


_________________________________________________________________
Layer (type)                 Output Shape              Param #   
=================================================================
conv2d (Conv2D)              (None, 32, 64, 1024)      1440      
_________________________________________________________________
batch_normalization (BatchNo (None, 32, 64, 1024)      128       
_________________________________________________________________
leaky_re_lu (LeakyReLU)      (None, 32, 64, 1024)      0         
_________________________________________________________________
conv2d_1 (Conv2D)            (None, 64, 64, 512)       18432     
_________________________________________________________________
batch_normalization_1 (Batch (None, 64, 64, 512)       256       
_________________________________________________________________
leaky_re_lu_1 (LeakyReLU)    (None, 64, 64, 512)       0         
_________________________________________________________________
basic_block (BasicBlock)     (None, 64, 64, 512)       20864     
_________________________________________________________________
conv2d_4 (Conv2D)            (None, 128, 64, 256)      73728     
_________________________________________________________________
batch_normalization_4 (Batch (None, 128, 64, 256)      512       
_________________________________________________________________
leaky_re_lu_4 (LeakyReLU)    (None, 128, 64, 256)      0         
_________________________________________________________________
basic_block_1 (BasicBlock)   (None, 128, 64, 256)      82688     
_________________________________________________________________
basic_block_2 (BasicBlock)   (None, 128, 64, 256)      82688     
_________________________________________________________________
conv2d_9 (Conv2D)            (None, 256, 64, 128)      294912    
_________________________________________________________________
batch_normalization_9 (Batch (None, 256, 64, 128)      1024      
_________________________________________________________________
leaky_re_lu_9 (LeakyReLU)    (None, 256, 64, 128)      0         
_________________________________________________________________
basic_block_3 (BasicBlock)   (None, 256, 64, 128)      329216    
_________________________________________________________________
basic_block_4 (BasicBlock)   (None, 256, 64, 128)      329216    
_________________________________________________________________
basic_block_5 (BasicBlock)   (None, 256, 64, 128)      329216    
_________________________________________________________________
basic_block_6 (BasicBlock)   (None, 256, 64, 128)      329216    
_________________________________________________________________
basic_block_7 (BasicBlock)   (None, 256, 64, 128)      329216    
_________________________________________________________________
basic_block_8 (BasicBlock)   (None, 256, 64, 128)      329216    
_________________________________________________________________
basic_block_9 (BasicBlock)   (None, 256, 64, 128)      329216    
_________________________________________________________________
basic_block_10 (BasicBlock)  (None, 256, 64, 128)      329216    
_________________________________________________________________
conv2d_26 (Conv2D)           (None, 512, 64, 64)       1179648   
_________________________________________________________________
batch_normalization_26 (Batc (None, 512, 64, 64)       2048      
_________________________________________________________________
leaky_re_lu_26 (LeakyReLU)   (None, 512, 64, 64)       0         
_________________________________________________________________
basic_block_11 (BasicBlock)  (None, 512, 64, 64)       1313792   
_________________________________________________________________
basic_block_12 (BasicBlock)  (None, 512, 64, 64)       1313792   
_________________________________________________________________
basic_block_13 (BasicBlock)  (None, 512, 64, 64)       1313792   
_________________________________________________________________
basic_block_14 (BasicBlock)  (None, 512, 64, 64)       1313792   
_________________________________________________________________
basic_block_15 (BasicBlock)  (None, 512, 64, 64)       1313792   
_________________________________________________________________
basic_block_16 (BasicBlock)  (None, 512, 64, 64)       1313792   
_________________________________________________________________
basic_block_17 (BasicBlock)  (None, 512, 64, 64)       1313792   
_________________________________________________________________
basic_block_18 (BasicBlock)  (None, 512, 64, 64)       1313792   
_________________________________________________________________
conv2d_43 (Conv2D)           (None, 1024, 64, 32)      4718592   
_________________________________________________________________
batch_normalization_43 (Batc (None, 1024, 64, 32)      4096      
_________________________________________________________________
leaky_re_lu_43 (LeakyReLU)   (None, 1024, 64, 32)      0         
_________________________________________________________________
basic_block_19 (BasicBlock)  (None, 1024, 64, 32)      5249024   
_________________________________________________________________
basic_block_20 (BasicBlock)  (None, 1024, 64, 32)      5249024   
_________________________________________________________________
basic_block_21 (BasicBlock)  (None, 1024, 64, 32)      5249024   
_________________________________________________________________
basic_block_22 (BasicBlock)  (None, 1024, 64, 32)      5249024   
_________________________________________________________________
dropout (Dropout)            (None, 1024, 64, 32)      0         
=================================================================
Total params: 40,621,216
Trainable params: 40,585,504
Non-trainable params: 35,712
_________________________________________________________________


======================== Decoder Summary ========================


_________________________________________________________________
Layer (type)                 Output Shape              Param #   
=================================================================
conv2d_transpose (Conv2DTran (None, 512, 64, 64)       2097664   
_________________________________________________________________
batch_normalization_52 (Batc (None, 512, 64, 64)       2048      
_________________________________________________________________
leaky_re_lu_52 (LeakyReLU)   (None, 512, 64, 64)       0         
_________________________________________________________________
basic_block_23 (BasicBlock)  (None, 512, 64, 64)       5249024   
_________________________________________________________________
conv2d_transpose_1 (Conv2DTr (None, 256, 64, 128)      524544    
_________________________________________________________________
batch_normalization_55 (Batc (None, 256, 64, 128)      1024      
_________________________________________________________________
leaky_re_lu_55 (LeakyReLU)   (None, 256, 64, 128)      0         
_________________________________________________________________
basic_block_24 (BasicBlock)  (None, 256, 64, 128)      1313792   
_________________________________________________________________
conv2d_transpose_2 (Conv2DTr (None, 128, 64, 256)      131200    
_________________________________________________________________
batch_normalization_58 (Batc (None, 128, 64, 256)      512       
_________________________________________________________________
leaky_re_lu_58 (LeakyReLU)   (None, 128, 64, 256)      0         
_________________________________________________________________
basic_block_25 (BasicBlock)  (None, 128, 64, 256)      329216    
_________________________________________________________________
conv2d_transpose_3 (Conv2DTr (None, 64, 64, 512)       32832     
_________________________________________________________________
batch_normalization_61 (Batc (None, 64, 64, 512)       256       
_________________________________________________________________
leaky_re_lu_61 (LeakyReLU)   (None, 64, 64, 512)       0         
_________________________________________________________________
basic_block_26 (BasicBlock)  (None, 64, 64, 512)       82688     
_________________________________________________________________
conv2d_transpose_4 (Conv2DTr (None, 32, 64, 1024)      8224      
_________________________________________________________________
batch_normalization_64 (Batc (None, 32, 64, 1024)      128       
_________________________________________________________________
leaky_re_lu_64 (LeakyReLU)   (None, 32, 64, 1024)      0         
_________________________________________________________________
basic_block_27 (BasicBlock)  (None, 32, 64, 1024)      20864     
_________________________________________________________________
dropout_1 (Dropout)          (None, 32, 64, 1024)      0         
=================================================================
Total params: 9,794,016
Trainable params: 9,786,080
Non-trainable params: 7,936
_________________________________________________________________


======================== Semantic Head Summary ========================


_________________________________________________________________
Layer (type)                 Output Shape              Param #   
=================================================================
dropout_2 (Dropout)          (None, 32, 64, 1024)      0         
_________________________________________________________________
conv2d_62 (Conv2D)           (None, 20, 64, 1024)      5780      
=================================================================
Total params: 5,780
Trainable params: 5,780
Non-trainable params: 0
_________________________________________________________________
